dqn_checkpoint.pth (torch_old, 37325 bytes, 6 tensors)

fc1.weight f4 [64, 37]
-0.038019206 0.030747386 -0.12860577 -0.05086896 -0.20189454 0.039419502 0.06135633 0.082433976
-0.08944558 0.21963376 0.012437805 -0.25180367 0.09740308 -0.59079814 -0.39427957 0.009798238
-0.14660674 0.24125959 -0.55887455 -0.44706365 0.22458845 -0.053716496 -0.41134235 0.18461941
-0.28347996 0.0964674 0.08099505 -0.35650796 -0.00025773462 -0.1259889 -0.21489012 0.20231292
0.06630456 -0.25388792 0.042313434 -0.05110939 -0.03361562 0.30228278 0.18073098 0.08614423
-0.33751658 -0.7331209 -0.06417282 -0.06852784 0.0015152835 -0.17599016 -0.34583685 0.1688358
0.07670535 -0.04559026 -0.18853752 0.1703867 0.24504158 -0.2698694 0.0544388 -0.073690034
-0.09747373 -0.071609266 -0.10696141 -0.06945362 -0.02044381 0.233291 0.088277765 -0.112964265
-0.004385936 0.014756065 0.20943864 -0.13968474 0.17519063 0.1951489 0.028321208 0.08755257
0.009323894 -0.015025609 0.17735755 -0.062057715 0.08656557 0.055777006 -0.25109914 -0.68988764
0.04658432 0.3572523 0.11177162 -1.0094458 -0.16257378 -0.07351912 0.064883225 -0.01852174
-0.1980158 -0.03147079 0.10352482 0.12662417 -0.41520032 0.10753032 -0.6022921 0.14513525
0.16330671 -0.22669132 -0.2544476 -0.16854735 0.1540577 0.13731624 -0.2531096 -0.36524302
-0.247933 0.08678788 -0.0644895 -0.12489297 -0.28099173 0.026843658 0.024070473 -0.06278466
-0.23185629 0.13631234 -0.37696975 -1.7448362 -0.43241683 -0.015543894 -0.007074109 -0.15280381
-0.8069954 -0.11475854 -0.12440745 -0.057967953 -0.49276814 -0.28256154 -0.23816088 -0.28715965
0.009504075 -0.59013146 -2.248445 -0.05888679 -0.16010794 -0.15016228 0.0618821 0.11997949
-0.18379451 -0.21566613 0.05330194 -0.33603024 -0.49691454 0.09110945 -0.06291297 -0.14003608
-0.32596746 0.017626386 0.2867026 -0.066656716 -0.11624115 -0.03108399 -0.07548929 -0.095722124
-0.11754109 0.283865 -0.07250216 -0.10802309 -0.3477753 -1.4641678 -0.0038102635 -0.109321654
0.1072737 0.00603772 0.08124459 -0.008447533 -0.06957774 -0.0021222003 0.05870406 0.13201588
-0.0724497 0.06460238 0.01605637 0.070039675 0.17011057 0.1031399 -0.077506155 0.093671136
0.106974296 -0.05654796 0.0053208787 0.09168583 0.08355539 0.19034198 0.4627171 0.023102883
-0.019980274 -0.056727704 -0.14132884 -0.20416217 0.1265675 -0.13323897 -0.023225423 0.2465883
-0.008200699 -0.12389924 -0.15341316 0.010056849 -0.017872347 -0.18506926 -0.31363717 0.0173662
0.07588074 -0.073478416 -0.13147953 -0.34572676 -0.2241005 0.27839586 -0.12483324 -0.26741123
-0.17460369 -0.16582055 -0.08330194 -0.104701445 0.15995994 -0.1567934 -0.28182346 -0.12799668
-0.079802044 0.11100991 -0.1206014 -0.16654582 -0.16120633 0.058048494 0.051738787 0.049102522
0.03425187 -0.012355349 -0.06829662 -0.00667772 0.0765747 0.050883677 0.06984458 0.11916168
0.11883779 0.12070888 0.14371619 0.14516854 0.023864398 -0.030339308 -0.014943218 0.06999682
0.10036012 0.17754517 0.046326425 -0.008411347 0.065811016 0.12675142 0.18121408 -0.031413846
0.038861174 -0.020811051 -0.010811252 0.041156195 0.43108186 -0.107570976 -0.6068199 -0.758768
00000000: 07ba 1bbd f1e1 fb3c 3bb1 03be f85b 50bd
00000010: 71bd 4ebe 5876 213d c650 7b3d 25d3 a83d
00000020: 3f2f b7bd ace7 603e efc7 4b3c 69ec 80be
00000030: 447b c73d 8c3e 17bf 03df c9be ca88 203c
00000040: 1420 16be c10c 773e 6712 0fbf 87e5 e4be
00000050: 84fa 653e d405 5cbd 779b d2be df0c 3d3e
00000060: 4924 91be b390 c53d bce0 a53d 3688 b6be
00000070: 8e20 87b9 3c03 01be 280c 5cbe 1e2b 4f3e
00000080: afca 873d 99fd 81be da50 2d3d 1458 51bd
00000090: 88b0 09bd cfc4 9a3e 8b11 393e 636c b03d
000000a0: f9ce acbe d0ad 3bbf 0a6d 83bd 5358 8cbd
000000b0: 7a9c c63a c436 34be 8711 b1be 4be3 2c3e
000000c0: b217 9d3d dabc 3abd fb0f 41be da79 2e3e
000000d0: 2eec 7a3e 522c 8abe 38fb 5e3d cdea 96bd
000000e0: 4fa0 c7bd e1a7 92bd 950e dbbd b33d 8ebd
000000f0: c779 a7bc d6e3 6e3e f9ca b43d cf59 e7bd
00000100: e6b7 8fbb 6cc3 713c 1577 563e 8409 0fbe
00000110: 2c65 333e 1dd5 473e e101 e83c c34e b33d
00000120: 3fc3 183c f92d 76bc 389d 353e 3b30 7ebd
00000130: 4a49 b13d 6e76 643d 1190 80be 7a9c 30bf
00000140: 33cf 3e3d c6e9 b63e 85e8 e43d 8535 81bf
00000150: be79 26be 3191 96bd 7fe1 843d e7ba 97bc
00000160: a7c4 4abe 84e7 00bd d204 d43d c4a9 013e
00000170: 2395 d4be db38 dc3d d12f 1abf 569e 143e
00000180: e039 273e c521 68be f546 82be ad97 2cbe
00000190: 4dc1 1d3e a19c 0c3e 9597 81be 2201 bbbe
000001a0: 26e2 7dbe d8bd b13d 1213 84bd e3c7 ffbd
000001b0: 26de 8fbe 3be7 db3c 712f c53c 3e95 80bd
000001c0: bc6b 6dbe 7695 0b3e 2e02 c1be cb56 dfbf
000001d0: bd65 ddbe d1ab 7ebc edcd e7bb 9a78 1cbe
000001e0: 4097 4ebf 8706 ebbd 55c9 febd ce6f 6dbd
000001f0: 1b4c fcbe e8ab 90be 72e0 73be 9706 93be
00000200: fbb6 1b3c db12 17bf 86e6 0fc0 4633 71bd
00000210: 56f3 23be 24c4 19be 1678 7d3d cfb7 f53d
00000220: a134 3cbe 95d7 5cbe 2353 5a3d 280c acbe
00000230: 956b febe 9797 ba3d 84d8 80bd 9e65 0fbe
00000240: 35e5 a6be 3665 903c afca 923e 5183 88bd
00000250: d70f eebd daa3 febc 219a 9abd f609 c4bd
00000260: 62b9 f0bd c156 913e 037c 94bd 363b ddbd
00000270: 9b0f b2be da69 bbbf 9db5 79bb 08e4 dfbd
00000280: 50b2 db3d 11d8 c53b 9063 a63d 8567 0abc
00000290: c67e 8ebd 9d14 0bbb ab73 703d 2c2f 073e
000002a0: 8260 94bd 414e 843d a688 833c f670 8f3d
000002b0: 7731 2e3e 033b d33d 8cbb 9ebd a7d6 bf3d
000002c0: 5715 db3d d59e 67bd c45a ae3b c8c5 bb3d
000002d0: 171f ab3d 02e9 423e 41e9 ec3e 4242 bd3c
000002e0: acad a3bc 4f5b 68bd 82b8 10be e30f 51be
000002f0: e99a 013e cc6f 08be 3e43 bebc a581 7c3e
00000300: 3a5c 06bc e2be fdbd 5718 1dbe 7bc5 243c
00000310: 0769 92bc cc82 3dbe 0d95 a0be 9043 8e3c
00000320: 5d67 9b3d da7b 96bd 92a2 06be 1903 b1be
00000330: 9a7a 65be e789 8e3e 92a8 ffbd 20ea 88be
00000340: 4fcb 32be ddcc 29be 359a aabd b66d d6bd
00000350: 8acc 233e 738e 20be 2a4b 90be 9011 03be
00000360: 416f a3bd 2a59 e33d defd f6bd fd8a 2abe
00000370: 4613 25be 42c4 6d3d 0dec 533d ba1f 493d
00000380: b04b 0c3d 176e 4abc 19df 8bbd c7d0 dabb
00000390: 32d3 9c3d 676b 503d ad0a 8f3d 0a0b f43d
000003a0: 3a61 f33d 3836 f73d 562a 133e 10a7 143e
000003b0: 457f c33c 248a f8bc 66d4 74bc 7e5a 8f3d
000003c0: 9b89 cd3d 67ce 353e c7c0 3d3d bfcf 09bc
000003d0: edc7 863d 20cb 013e 2f90 393e ceab 00bd
000003e0: e52c 1f3d f07b aabc ad21 31bc 6693 283d
000003f0: c3b6 dc3e 2c4e dcbd 8d58 1bbf 9f3e 42bf

fc1.bias f4 [64]
0.09403224 -0.021399794 -0.042152055 -0.1858594 0.19683902 -0.14201745 -0.008949568 0.07577788
0.014516642 -0.17006838 0.10170262 0.27507642 0.11266569 0.073624045 -0.08032584 -0.110656716
0.010498396 0.07837935 -0.0687972 -0.16031113 -0.114744045 0.016669014 -0.045886397 -0.037879042
-0.2120932 0.13939369 -0.0014237444 -0.12579799 0.15928642 0.16075866 -0.147586 -0.14689149
0.14498538 -0.06957791 -0.09720436 0.054680355 -0.07975995 0.0061882273 -0.05344668 -0.14885704
-0.13211866 -0.062422764 -0.13753974 0.13278987 -0.018586215 -0.08253055 0.051703878 -0.097191304
0.015634263 0.022418143 -0.23129122 0.047787856 0.031049496 -0.051118907 -0.20719735 0.04196446
0.058795273 -0.08153941 -0.08136499 -0.15132648 0.0547789 0.06027142 0.086731814 0.111016
00000000: fa93 c03d 9f4e afbc a2a7 2cbd ed51 3ebe
00000010: 2b90 493e 066d 11be 35a1 12bc 6f31 9b3d
00000020: 36d7 6d3c 6826 2ebe 7749 d03d d1d6 8c3e
00000030: 45bd e63d 34c8 963d e081 a4bd fd9f e2bd
00000040: 7701 2c3c 5a85 a03d 8ce5 8cbd 9a28 24be
00000050: edfe eabd 758d 883c 60f3 3bbd 0e27 1bbd
00000060: f62e 59be 38bd 0e3e ef9c baba 30d1 00be
00000070: fb1b 233e eb9d 243e c920 17be b96a 16be
00000080: 0c77 143e dd7e 8ebd 1413 c7bd 82f8 5f3d
00000090: 2f59 a3bd 9dc6 ca3b e8ea 5abd fb6d 18be
000000a0: 1d4a 07be 03af 7fbd 38d7 0cbe 11fa 073e
000000b0: 1e42 98bc c705 a9bd 72c7 533d 3c0c c7bd
000000c0: 6d13 803c 41a6 b73c 9bd7 6cbe 33bd 433d
000000d0: 835b fe3c 0f62 51bd 8b2b 54be ede2 2b3d
000000e0: 50d3 703d 22fe a6bd b0a2 a6bd 54f5 1abe
000000f0: d75f 603d 2adf 763d 73a0 b13d 5b5c e33d

fc2.weight f4 [96, 64]
-0.015588103 0.13895807 0.043081824 0.377207 0.15757522 -0.062268667 -0.36537012 0.0062662964
0.14430588 0.09964055 -0.017203664 0.26240423 0.110804506 0.019798253 -0.06905493 0.09456244
0.16865572 -0.17138723 -0.13892655 0.017200755 0.2014293 0.16267094 0.18850224 -0.2878199
-0.054293673 -0.037320055 -0.0504696 -0.49194977 0.17140634 -0.15364687 0.15971299 -0.072109886
0.07258794 0.13442278 -0.4258265 -0.05382312 -0.11445028 -0.17219093 -0.32876194 -0.030075151
-0.058901716 0.0150890015 -0.0408395 -0.23459823 0.030977428 0.03897061 -0.06492436 0.032483403
0.1475537 0.010921463 -0.06915486 -0.012237053 0.008521627 -0.26968834 0.0057589547 -0.14410904
-0.042643927 0.036085602 -0.21547058 0.14950755 -0.038326345 -0.29901978 0.06504568 -0.040611763
0.24958125 -0.011875854 -0.13172998 0.33291623 -0.07483915 0.066850334 0.07994557 0.19566953
0.029380476 0.023521934 0.006438424 -0.05957229 0.06538126 0.04143261 0.07005793 0.13585798
-0.18353896 -0.103083596 0.05273005 0.060978863 -0.0397253 -0.6330765 0.021184249 0.1254954
-0.18052027 0.056284226 -0.0024731662 -0.075469494 0.07533102 -0.05894809 -0.09024045 -0.14492482
-0.14393397 0.14767191 0.4026379 -0.4741403 -0.18862867 -0.05347363 0.07502735 0.07842303
-0.077956334 0.1473766 -0.21471156 -0.03164949 0.19096579 0.25173807 -0.023971777 -0.112415075
-0.08547033 -0.28072983 -0.17296702 0.17668806 -0.36175308 -0.22160415 -0.3842983 -0.017292038
-0.109646454 0.12937255 0.45360208 0.23885068 0.005632968 -0.29252988 0.004567646 -0.061804533
-0.35621002 -0.07898827 0.055375073 0.33557647 0.01579789 -0.043816585 -0.32485238 0.07358236
0.2759536 -0.09209282 0.087793216 0.07391935 0.22686227 0.22394583 0.15168563 -0.17992602
-0.31696764 -0.2609713 0.1296776 -0.2849787 -0.16240248 -0.011530981 -0.23908974 0.23777947
0.23686233 0.10982744 0.2111487 -0.47659513 -0.11863765 0.17019491 -0.3002189 0.03215647
0.0074578603 -0.03079425 -0.44330874 0.11374516 0.062800646 -0.26037169 -0.3243316 -0.19514911
-0.0674519 -0.11027491 0.37498447 -0.19372779 -0.036784913 -0.4590727 0.07883065 -0.22280148
0.09991411 -0.1649315 -0.051826138 -0.056387424 -0.15761545 -0.12652327 0.122106135 -0.15892124
0.027114186 0.07557167 0.35692966 -0.13216202 -0.07297892 -0.22635941 0.16268294 -0.0064536803
0.15584727 -0.080042064 0.0078100483 -0.17925885 0.0049772463 -0.20434693 0.50439143 0.08405317
-0.21394196 0.19092928 -0.023577234 0.15636635 -0.033973508 0.07109493 -0.011203358 0.1776832
-0.042661097 -0.20105974 -0.14421424 -0.06307557 0.17279086 -0.04292624 -0.016790705 -0.32416278
0.21559997 0.05183056 0.21269494 -0.29424185 0.07110339 -0.033325646 -0.06503028 0.16791457
-0.040174488 -0.20302686 -0.044489592 0.16944522 -0.25909826 -0.3185938 0.228923 0.1292182
0.1473683 0.1745516 0.12712164 -0.030192237 0.008455215 0.12019612 -0.015919358 0.027669027
-0.05321622 0.039113544 -0.08083096 0.10395681 0.027878486 0.2608857 -0.03881802 0.18965395
-0.19364868 -0.05120071 -0.28554463 -0.03186789 -0.16965236 -0.36404997 -0.004194555 -0.06975269
00000000: 3e65 7fbc 064b 0e3e 9176 303d 4721 c13e
00000010: 665b 213e 6e0d 7fbd cb11 bbbe 8155 cd3b
00000020: ecc4 133e 5810 cc3d b3ee 8cbc d959 863e
00000030: 79ed e23d f22f a23c ac6c 8dbd f4a9 c13d
00000040: 16b4 2c3e 2280 2fbe c342 0ebe 99e8 8c3c
00000050: 7b43 4e3e 3693 263e bb06 413e 215d 93be
00000060: 0b63 5ebd eadc 18bd 36b9 4ebd d7e0 fbbe
00000070: 2585 2f3e 9b55 1dbe cd8b 233e 59ae 93bd
00000080: fca8 943d 20a6 093e ee05 dabe a275 5cbd
00000090: e964 eabd d252 30be 7c53 a8be 2a60 f6bc
000000a0: ed42 71bd dc37 773c 5247 27bd 853a 70be
000000b0: 60c4 fd3c a59f 1f3d 10f7 84bd 510d 053d
000000c0: 5118 173e f0ef 323c 10a1 8dbd ec7d 48bc
000000d0: 4b9e 0b3c 9714 8abe 9db5 bc3b 5291 13be
000000e0: 66ab 2ebd 7fce 133d 52a4 5cbe 8218 193e
000000f0: 16fc 1cbd 1f19 99be ab36 853d 8558 26bd
00000100: 3a92 7f3e f192 42bc 39e4 06be ff73 aa3e
00000110: 4545 99bd d4e8 883d 81ba a33d 985d 483e
00000120: 53af f03c 12b1 c03c 6af9 d23b 1302 74bd
00000130: 9ce6 853d 3eb5 293d 887a 8f3d 5b1e 0b3e
00000140: a3f1 3bbe 7e1d d3bd 77fb 573d f9c4 793d
00000150: ffb6 22bd 4d11 22bf 978a ad3c de81 003e
00000160: 4eda 38be 4a8a 663d d814 22bb c08f 9abd
00000170: 2647 9a3d 8d73 71bd fccf b8bd 2c67 14be
00000180: 6d63 13be 4e37 173e 8e26 ce3e 84c2 f2be
00000190: e027 41be 2a07 5bbd f0a7 993d 419c a03d
000001a0: 92a7 9fbd e4e9 163e 59dd 5bbe e5a2 01bd
000001b0: 898c 433e d0e3 803e 7660 c4bc e039 e6bd
000001c0: 120b afbd d2bb 8fbe 441e 31be b7ed 343e
000001d0: b337 b9be 33ec 62be bfc2 c4be 08a8 8dbc
000001e0: 528e e0bd 3d7a 043e 883e e83e 4695 743e
000001f0: c394 b83b 7ac6 95be 31ac 953b c026 7dbd
00000200: 2961 b6be 9ac4 a1bd f9d0 623d aed0 ab3e
00000210: 946a 813c 0579 33bd 0d53 a6be 59b2 963d
00000220: ca49 8d3e 299b bcbd eecc b33d 0763 973d
00000230: 954e 683e 0e52 653e 7a53 1b3e 873e 38be
00000240: 9549 a2be 089e 85be 34ca 043e bae8 91be
00000250: d64c 26be 71ec 3cbc f1d3 74be 767c 733e
00000260: 0a8c 723e 35ed e03d 5d37 583e 4704 f4be
00000270: 4cf8 f2bd 9347 2e3e 4bb6 99be 81b6 033d
00000280: 1161 f43b 3944 fcbc 5df9 e2be 39f3 e83d
00000290: a09d 803d 704f 85be cb0e a6be 2bd5 47be
000002a0: 3924 8abd d0d7 e1bd f7fd bf3e 9460 46be
000002b0: c7ab 16bd 940b ebbe f771 a13d 1226 64be
000002c0: c59f cc3d cee3 28be a547 54bd 80f6 66bd
000002d0: f265 21be 518f 01be c812 fa3d 40bc 22be
000002e0: 921e de3c 52c5 9a3d 7cbf b63e 7b55 07be
000002f0: f975 95bd c3ca 67be 5b96 263e 6579 d3bb
00000300: 6d96 1f3e 18ed a3bd 6feb ff3b a28f 37be
00000310: 2b18 a33b 5240 51be cc1f 013f 1224 ac3d
00000320: 9a13 5bbe f782 433e 0b25 c1bc 801e 203e
00000330: ce27 0bbd 389a 913d 4a8e 37bc 96f2 353e
00000340: 67bd 2ebd 9be2 4dbe e6ac 13be c42d 81bd
00000350: 16f0 303e 6dd3 2fbd a98c 89bc aaf8 a5be
00000360: 3dc6 5c3e 484c 543d b4cc 593e dea6 96be
00000370: a79e 913d 7980 08bd 982e 85bd ccf1 2b3e
00000380: 018e 24bd 46e6 4fbe b83a 36bd 0c83 2d3e
00000390: 87a8 84be ba1e a3be ca6a 6a3e c751 043e
000003a0: b7e7 163e a8bd 323e 2d2c 023e b655 f7bc
000003b0: be87 0a3c 6229 f63d 5069 82bc 28aa e23c
000003c0: 40f9 59bd 8635 203d b48a a5bd 4fe7 d43d
000003d0: 6c61 e43c cf92 853e a5ff 1ebd a534 423e
000003e0: d74b 46be d6b7 51bd e832 92be e887 02bd
000003f0: 59b9 2dbe c264 babe 7a72 89bb 80da 8ebd

fc2.bias f4 [96]
0.003698019 0.13937335 -0.095451504 0.01915457 0.036635198 0.3581487 0.08754478 -0.043861356
-0.17367733 0.018726425 -0.31352308 -0.09955075 0.22827129 -0.0051248907 -0.16400287 -0.16397081
0.12111084 -0.027181977 0.0033556276 -0.1503989 0.3169712 0.053183082 0.43666008 -0.13028319
-0.01639652 0.09029267 0.35734662 0.54024214 -0.053936917 -0.20199572 0.04737662 -0.17107919
0.54856557 -0.06434019 -0.10907143 -0.19244225 0.35394976 -0.16706923 0.23776117 -0.17364062
0.25441313 0.24182542 -0.031146435 0.14356388 0.15058686 0.050964665 0.09776378 0.20207195
0.45793426 -0.117689654 0.1068018 -0.111952 0.12011506 -0.03540408 -0.1432039 -0.24299106
-0.023016388 -0.03874763 0.05223902 -0.027629765 0.055066828 0.30705965 -0.02332002 0.012528747
0.033554375 0.4772217 0.60260093 -0.20815596 -0.1375459 0.1410006 -0.12713131 -0.12051768
-0.012685955 0.18975116 0.41037634 0.01261582 0.041615326 -0.18191357 0.19414389 -0.114939265
-0.21192731 -0.041710623 0.02565804 0.45023462 0.65176463 -0.14773782 -0.038417213 -0.121833876
0.2040143 0.47325632 -0.019148037 0.0701629 0.41590208 0.053935144 -0.14258274 -0.023618076
00000000: 775a 723b e3b7 0e3e 147c c3bd 0bea 9c3c
00000010: ca0e 163d 445f b73e ad4a b33d f7a7 33bd
00000020: 78d8 31be 2968 993c 1986 a0be 43e1 cbbd
00000030: f3bf 693e b3ee a7bb 5ef0 27be f7e7 27be
00000040: f608 f83d bdac debc 17ea 5b3b 2b02 1abe
00000050: 0d4a a23e 81d6 593d e991 df3e f568 05be
00000060: ff51 86bc 5deb b83d 23f6 b63e 4f4d 0a3f
00000070: f5ec 5cbd f7d7 4ebe fd0d 423d 622f 2fbe
00000080: cb6e 0c3f cac4 83bd d860 dfbd 950f 45be
00000090: e738 b53e 3214 2bbe aa77 733e d9ce 31be
000000a0: 7042 823e 15a1 773e cf26 ffbc 6902 133e
000000b0: 7133 1a3e 53c0 503d 6038 c83d f3eb 4e3e
000000c0: 5c76 ea3e 4607 f1bd e7ba da3d 1747 e5bd
000000d0: e2fe f53d de03 11bd 0ba4 12be a6d2 78be
000000e0: dd8c bcbc d6b5 1ebd 95f8 553d d157 e2bc
000000f0: c18d 613d ec36 9d3e a009 bfbc 6045 4d3c
00000100: 5070 093d 6756 f43e 0e44 1a3f d626 55be
00000110: d5d8 0cbe 7662 103e b62e 02be f9d1 f6bd
00000120: c0d8 4fbc 214e 423e d91c d23e 96b2 4e3c
00000130: d574 2a3d 8d47 3abe a8cd 463e 4765 ebbd
00000140: 7903 59be c2d8 2abd cf30 d23c 2785 e63e
00000150: 0cda 263f 9548 17be 5e5b 1dbd 0a84 f9bd
00000160: 20e9 503e a74e f23e 58dc 9cbc 91b1 8f3d
00000170: 1ef1 d43e 19eb 5c3d 3601 12be b27a c1bc

fc3.weight f4 [4, 96]
0.27730998 0.019406177 0.080355026 0.08110509 -0.05984145 0.23700304 0.18326251 0.195543
0.02916074 -0.5768074 -0.16596486 -0.07831408 0.100976504 0.12708077 -0.08495555 0.50454324
-0.014469887 0.07320968 0.05624618 0.030168286 0.13474064 0.61176336 0.12360689 0.01110665
0.52648264 -0.14166214 0.15422177 0.13786797 0.20279224 -0.30019268 0.11702777 -0.015022407
0.1564623 -0.055784024 0.3140374 0.009035822 0.045244038 -0.15319356 0.06899163 -0.23988825
0.19275442 0.028215175 0.10804686 0.09881141 0.21678829 0.03656013 -0.08250379 0.0134688
0.14866048 -0.14344893 0.2060595 -0.21144193 0.1710504 0.4472882 -0.47898856 -0.1430029
-0.061556254 0.081447124 0.582574 0.68276966 0.06609717 0.4414066 0.019236986 -0.12094688
0.04070281 0.23425794 0.2354644 -0.21536377 -0.15540278 0.20167093 -0.0046152687 -0.16936037
-0.033193175 0.22304665 0.32990897 0.3262645 0.06510065 -0.37432164 0.16451572 0.03600388
-0.22999561 -0.10481527 -0.4618797 0.179564 0.23068097 -0.14465362 0.0019242578 0.21705155
0.1275815 0.19802852 -0.06359937 0.13819972 0.1251025 0.16511 -0.3075572 0.119832836
0.28347254 0.052469183 0.21144643 0.16600144 0.008361208 0.24067688 0.03773708 0.014139257
0.04425801 -0.10342813 -0.18626834 -0.15639836 0.18489008 0.10274767 -0.050643515 0.5462304
-0.056658465 0.0971065 0.15803924 0.035809934 0.17997308 0.5051798 0.13491055 -0.1459609
0.7830914 0.36504665 0.18469676 0.14618184 -0.3310127 -0.18226805 -0.024705118 -0.03060548
0.19005325 -0.0057673557 0.24483286 -0.17737459 0.11646498 -0.18292244 0.2045122 -0.11364522
0.19708125 0.18243635 0.29704714 0.21422198 0.15757504 0.21994004 0.15342733 0.04042525
0.08203395 -0.00071996194 0.26473653 -0.16122396 0.19613408 0.44163376 -0.11569814 -0.098408155
0.01713057 -0.2179818 0.4264238 0.26424152 0.062210787 0.28919587 0.2228926 0.101627864
-0.088012725 0.26967183 0.24802823 -0.22816215 -0.04529701 0.15616181 -0.45466363 -0.07807952
0.28372264 0.26125604 0.3029024 0.20817801 -0.008341699 -0.09215602 0.2051136 0.11976691
-0.12859683 -0.101799086 -0.0686324 0.139203 0.22303104 -0.21868803 -0.13396437 -0.28464288
0.16876118 0.09557071 -0.44655597 0.058284886 0.16306244 0.11165816 0.12512054 0.111476935
-0.054732554 0.23599577 0.312189 0.25241518 0.11806122 0.26514018 0.2295528 -0.21748517
-0.65491104 0.014284737 -0.05653152 -0.07212864 0.11244868 0.17641193 -0.13035627 -0.06724056
-0.6948007 0.27719352 0.18135463 0.4034039 0.21946341 0.5563664 0.1419023 0.22707602
0.80414754 -0.25265026 0.06796003 0.2023691 -0.28142145 -0.34410977 -0.2749319 -0.09113167
0.14822347 0.07667956 -0.2973253 -0.23247506 0.09620595 -0.25115046 0.33784497 -0.27783442
0.14454223 -0.07927114 0.16162832 0.18359643 0.018418295 -0.30480888 0.41704053 0.21578434
0.14699118 0.24386933 0.2847129 -0.44415793 0.20004791 0.12953278 0.087347284 -0.12053867
0.09316216 -0.1353521 0.22326675 0.34409901 -0.04348021 0.13892318 0.00197893 -0.26835006
00000000: 93fb 8d3e b4f9 9e3c 2d91 a43d 6d1a a63d
00000010: 4f1c 75bd edb0 723e 2ba9 3b3e 6d3c 483e
00000020: 81e2 ee3c a6a9 13bf b1f2 29be 2263 a0bd
00000030: c5cc ce3d 7621 023e 2dfd adbd bf29 013f
00000040: 1b13 6dbc f5ee 953d 6562 663d 7b23 f73c
00000050: 73f9 093e 869c 1c3f 9c25 fd3d abf8 353c
00000060: 91c7 063f e10f 11be 50ec 1d3e 432d 0d3e
00000070: c5a8 4f3e dbb2 99be 41ac ef3d 8b20 76bc
00000080: a737 203e ca7d 64bd 83c9 a03e fc0a 143c
00000090: d051 393d c6de 1cbe 7c4b 8d3d 44a5 75be
000000a0: 6a61 453e 8323 e73c ac47 dd3d a35d ca3d
000000b0: c0fd 5d3e 13c0 153d bff7 a8bd 3eac 5c3c
000000c0: 743a 183e 47e4 12be 4301 533e 3c84 58be
000000d0: d627 2f3e f502 e53e fd3d f5be 5a6f 12be
000000e0: 6922 7cbd c0cd a63d 9223 153f fec9 2e3f
000000f0: f45d 873d 0c00 e23e e296 9d3c ffb2 f7bd
00000100: fdb7 263d 50e1 6f3e 941d 713e 5288 5cbe
00000110: e821 1fbe d382 4e3e ae3b 97bb ce6c 2dbe
00000120: 91f5 07bd 5766 643e d4e9 a83e 240c a73e
00000130: 7d53 853d 16a7 bfbe cf76 283e ce78 133d
00000140: f883 6bbe 63a9 d6bd 7f7b ecbe a0df 373e
00000150: a237 6c3e 1420 14be 6137 fc3a c342 5e3e
00000160: baa4 023e fdc7 4a3e 6340 82bd 3a84 0d3e
00000170: df1a 003e 9912 293e 2378 9dbe eb6a f53d
00000180: 5023 913e ede9 563d 6a85 583e 48fc 293e
00000190: 73fd 083c 0074 763e 3292 1a3d 58a8 673c
000001a0: e347 353d 21d2 d3bd 21bd 3ebe e426 20be
000001b0: d353 3d3e 5f6d d23d 936f 4fbd c1d5 0b3f
000001c0: b512 68bd c6df c63d 0ad5 213e 70ad 123d
000001d0: dd4a 383e 7753 013f fe25 0a3e c676 15be
000001e0: ae78 483f 65e7 ba3e 2621 3d3e b1b0 153e
000001f0: 7f7a a9be 7aa4 3abe 6362 cabc 58b8 fabc
00000200: 529d 423e 16fc bcbb 77b5 7a3e afa1 35be
00000210: 3185 ee3d 0550 3bbe a56b 513e d3be e8bd
00000220: abcf 493e 98d0 3a3e 9016 983e 025d 5b3e
00000230: 5a5b 213e f637 613e 0e1c 1d3e f294 253d
00000240: 6a01 a83d d4bb 3cba 8c8b 873e e517 25be
00000250: 5fd7 483e d21d e23e 25f3 ecbd 378a c9bd
00000260: 6955 8c3c 9f36 5fbe 3854 da3e aa4a 873e
00000270: bdd0 7e3d 7b11 943e f53d 643e 4522 d03d
00000280: 0440 b4bd 6d12 8a3e 1dfb 7d3e 57a3 69be
00000290: 5c89 39bd e2e8 1f3e acc9 e8be 28e8 9fbd
000002a0: 1844 913e 5ac3 853e 0616 9b3e 9e2c 553e
000002b0: 9fab 08bc 4cbc bcbd 4d09 523e 5b48 f53d
000002c0: e3ae 03be 0a7c d0bd 258f 8cbd 3b8b 0e3e
000002d0: 4062 643e c1ef 5fbe f52d 09be b6bc 91be
000002e0: bbcf 2c3e 94ba c33d fca2 e4be 22bc 6e3d
000002f0: d7f9 263e 09ad e43d 991f 003e 054e e43d
00000300: 3e2f 60bd e0a8 713e 3dd7 9f3e 903c 813e
00000310: 15ca f13d 74c0 873e e40f 6b3e 6fb4 5ebe
00000320: 40a8 27bf 880a 6a3c 988d 67bd 2eb8 93bd
00000330: 7e4b e63d 54a5 343e 1d7c 05be 6bb5 89bd
00000340: 75de 31bf 4fec 8d3e 07b5 393e f58a ce3e
00000350: 04bb 603e 076e 0e3f d64e 113e 9e86 683e
00000360: 9ddc 4d3f 605b 81be a12e 8b3d d839 4f3e
00000370: 7916 90be 282f b0be e0c3 8cbe 3ea3 babd
00000380: e5c7 173e 2c0a 9d3d 063b 98be f10d 6ebe
00000390: a007 c53d cb96 80be 04fa ac3e 5040 8ebe
000003a0: e102 143e e858 a2bd e581 253e b400 3c3e
000003b0: f7e1 963c e90f 9cbe 5686 d53e 92f6 5c3e
000003c0: db84 163e e2b8 793e e4c5 913e ab68 e3be
000003d0: 5cd9 4c3e 3ea4 043e 22e3 b23d fadc f6bd
000003e0: cdcb be3d be99 0abe 0aa0 643e bf2d b03e
000003f0: 4e18 32bd e141 0e3e f0b0 013b 2e65 89be

fc3.bias f4 [4]
0.48818892 0.31927517 0.4267541 0.35511178
00000000: e6f3 f93e 0978 a33e 837f da3e 36d1 b53e
